===================================================================================================================
Layer (type:depth-idx)                                            Output Shape              Param #
===================================================================================================================
SingleModel                                                       --                        --
├─PastModel: 1-1                                                  [1, 19]                   --
│    └─RepresentationModel: 2-1                                   [1, 31, 70]               --
│    │    └─RepresentationBlock: 3-1                              [1, 35, 31]               165,489
│    │    └─RepresentationBlock: 3-2                              [1, 35, 31]               24,011
│    │    └─RepresentationBlock: 3-3                              [1, 35, 31]               73,680
│    │    └─CombineRepresentation: 3-4                            [1, 31, 70]               35
│    └─PastHead2: 2-2                                             [1, 19]                   --
│    │    └─PastHead: 3-5                                         [1, 19]                   6,954
│    └─PastHead2: 2-3                                             [1, 54]                   --
│    │    └─PastHead: 3-6                                         [1, 54]                   19,764
├─LILSTMCell2: 1-2                                                [1, 19]                   --
│    └─LILSTMCell: 2-4                                            [1, 19]                   --
│    │    └─LSTMCell: 3-7                                         [1, 19]                   3,344
├─LILSTMCell2: 1-3                                                [1, 54]                   --
│    └─LILSTMCell: 2-5                                            [1, 54]                   --
│    │    └─LSTMCell: 3-8                                         [1, 54]                   17,064
├─CombineHead: 1-4                                                [1, 3]                    --
│    └─ResidualFC: 2-6                                            [1, 54]                   --
│    │    └─ResidualStack: 3-9                                    [1, 54]                   8,913
│    └─CombineRepresentation: 2-7                                 [1, 73]                   19
│    └─ResidualFC: 2-8                                            [1, 3]                    --
│    │    └─ResidualStack: 3-10                                   [1, 3]                    5,625
├─LILSTMCell2: 1-5                                                [1, 19]                   (recursive)
│    └─LILSTMCell: 2-9                                            [1, 19]                   (recursive)
│    │    └─LSTMCell: 3-11                                        [1, 19]                   (recursive)
├─LILSTMCell2: 1-6                                                [1, 54]                   (recursive)
…
